weight/weight.pth (torch, 191949 bytes, 10 tensors)

conv1.weight f4 [20, 3, 5, 5]
00000000: 4f70 253a c7f9 d4bd 850a 7e3d f407 fe3d
00000010: 0c29 53bd e419 453d 2f54 4e3d c48b 863d
00000020: edfa fc3c a92b af3d 71d3 64bc 35f8 62bd
00000030: f19c aa3d 3be2 b1ba 0d0b b0bd 4d67 753c
00000040: 6726 0fbe 0186 a1bd b6a8 fb3c 891d dfbc
00000050: 222b debd b15d 2f3c b027 43bd 6e23 8b3d
00000060: 3443 3a3d d43c debd ba27 e6bd 963e 883d
00000070: d352 f4bc 83b6 37bc f5c4 223d 623b b33d
00000080: 7014 183e 3508 20bd dbc8 c63d 5467 503d
00000090: d39c 5cbd d98a 463d c34e 9c3c 8be6 13bd
000000a0: 7c42 ad3c 9b47 313d 0d84 6ebd eb91 c5bd
000000b0: 6f98 103c 5c9c afbd b760 483d 6b1b 753d
000000c0: 2b64 a7bd bee7 c43c 9bc7 cc3d c08c c1bd
000000d0: 76e1 dcbd 7893 83bd 0c26 adbd b596 97bb
000000e0: 6c34 023d cd8c dabd 0325 833d e8de 123d
000000f0: 98aa 9cbd 01b3 61bb 31f1 163d 8f08 99bd
00000100: 03d9 81bc 9f99 ec3d 19c4 bcbc 596a 8a3d
00000110: 1e4c 37bd 7b57 023e 708d b33a 19ab 133e
00000120: 6ac4 123d cd75 033d f868 81bd bfd5 3d3d
00000130: d96c 13be 4188 1dbe 41f3 39bd c1cc c7bd
00000140: a306 afbd 60db 88bd 0c84 4bbd 66d5 13be
00000150: 995a 66bd bd08 483c 427d ca3d 3eb5 883d
00000160: 1ed0 383e 6c99 313e 1bc0 20be 9867 c13b
00000170: 5f28 263e fb02 593e 2983 593e e635 31be
00000180: 4f38 22be fa32 9ebc 5433 5c3e 120e f03d
00000190: 0d57 bcbd 3d03 a13c 8ff2 13be 8191 b2bd
000001a0: ed45 e9bd 3c33 20be 3927 16be 1092 edbb
000001b0: 35cd abbd 41d8 6ebd f69c 8c3d f336 66bd
000001c0: e1a8 93bd ccf3 0a3e 9fac 253e 0162 3dbd
000001d0: a5dc 773d 5eb5 a63d 30c5 393e 1950 713d
000001e0: 1cc9 9bbd 9098 223c 16ec d73d 1859 843c
000001f0: c50b 8c3d d098 9f3d 5372 f53d c39a 1c3e
00000200: f6aa 4a3e c940 653e f4a1 413e 3518 903d
00000210: 0b09 ec3d fab2 23bd a04f f83c 0050 bcbc
00000220: 6dbd 383d 9abe 4cbd 7125 03be 0ea1 7fbe
00000230: 1ff1 483e 1087 2ebd c1f2 2cbe 6368 8dbe
00000240: 7e51 15be bc44 673e 0fc1 0c3e c672 28bd
00000250: 4c7d 92be ebf5 86be a24d f7bd d9ec b1bd
00000260: 641d 963d c435 1fbd 01b1 613d 41f3 403d
00000270: 5c78 d0bc 0420 a5bc c998 a7bd 50a1 6cbd
00000280: 5fcf a2bd 17a9 3a3c 3819 bfbd eea9 fabd
00000290: 8304 0c3d b360 6bbc ce4c a13d ee65 8f3d
000002a0: 0b8f b03d 7a2c 4fbc 3720 e63d 4e0b 8dbd
000002b0: f3e2 cebc cbc3 20bd 4911 12bc 8526 253d
000002c0: d4a3 a0bd ca22 a0bb 564a cdbd 7fe5 a0bd
000002d0: b182 e8bb ac33 02bd 680b 95bd 5724 5e3d
000002e0: 39ab 093d 0cc8 653a 60c0 5a3d 1b79 5d3d
000002f0: 9003 a33d e7c5 543c e440 7e3d ab3d 4f3d
00000300: 72bc 023d 9c46 823c 8ff3 85bd 5eeb 20bc
00000310: 5bfb d03c f71d bc3c 3b2a df3d 6df8 a13d
00000320: 0e05 b53d 4530 533e 6b75 0abd 693f 1f3e
00000330: dc2a 003d 6d25 a83d 432c a13c 0bf1 0a3e
00000340: 40da 173e f64e 323d de37 f5bd 971f 45be
00000350: cc80 2dbe 29e5 abbc c7bb c3bd f97e f8bd
00000360: 1726 a2bd fdc4 00be 3d3b 44be 2f2e a83c
00000370: aab2 f2bd 9a8b 04be 7a5f 2b3b 68ca f2bd
00000380: 359d 9dbd 025d 363e 95ee c9bc 8a64 8d3d
00000390: 9baa adba ff12 153e cc0c 6e3e 160b 1f3e
000003a0: a0d0 293e 8060 a3bc ae8c 873d fb74 8f3d
000003b0: f0f9 d4bd bca5 6d3c 9d86 5abe d8f5 6dbc
000003c0: a2dd 3e3d 6526 9cbd 6974 bdbc eefb 5abe
000003d0: 04fc e1bc c017 b53d 3ee6 a23b 7e38 c1bc
000003e0: f52f 21be 8a77 5abe d50f e13d 8e3f 15bd
000003f0: 0797 0dbe 817f b7bc d3ba c73d d72b dd3c
0.0006310986 -0.10399204 0.06202175 0.12403861 -0.051552817 0.048120394 0.050373252 0.06569627
0.03088137 0.085532494 -0.013966427 -0.05541249 0.083307154 -0.001357145 -0.08595858 0.014978242
-0.13979493 -0.07886887 0.030720096 -0.027235763 -0.10848071 0.01070349 -0.04764527 0.06793867
0.045474246 -0.10851446 -0.11238046 0.06652562 -0.02982465 -0.011212948 0.039738614 0.08751561
0.14851546 -0.039070327 0.09706279 0.05087979 -0.053860497 0.04847226 0.019080525 -0.036108535
0.021149866 0.04328118 -0.058231402 -0.09646972 0.0088254055 -0.08574745 0.04892036 0.0598406
-0.081734024 0.024036285 0.09999009 -0.09450674 -0.10785191 -0.06424612 -0.084545225 -0.00462612
0.031788275 -0.10671387 0.06403544 0.03585711 -0.07649726 -0.003443897 0.03685111 -0.074723355
-0.01585055 0.115527384 -0.023042725 0.067585655 -0.044750325 0.12728684 0.0013698768 0.14420737
0.035831846 0.032094765 -0.06318849 0.046346422 -0.14396991 -0.15384008 -0.045398 -0.097558506
-0.08546188 -0.066824675 -0.049686477 -0.14436874 -0.056238744 0.012209115 0.09887172 0.06675194
0.1804814 0.17343682 -0.15698282 0.005902242 0.16226338 0.21192543 0.2124144 -0.17305717
-0.15841793 -0.019311417 0.21503955 0.11721434 -0.09196291 0.019654864 -0.14447998 -0.08719159
-0.113902904 -0.15644544 -0.146634 -0.007250078 -0.083887495 -0.058311705 0.068658754 -0.056204747
-0.072099455 0.13569564 0.16179131 -0.046236042 0.060513157 0.08140062 0.18141627 0.058914278
-0.07606718 0.009924069 0.10543077 0.016155764 0.06838182 0.077928185 0.11984696 0.15293412
0.19791779 0.22387995 0.18909436 0.07035867 0.11525162 -0.039965607 0.030311406 -0.022987366
0.045102526 -0.04998646 -0.12807252 -0.24963781 0.1962323 -0.042609274 -0.16889478 -0.27618703
-0.14581868 0.22584814 0.13745521 -0.04112508 -0.2861122 -0.26359496 -0.12075354 -0.08687753
0.073298246 -0.038869634 0.055100445 0.047106985 -0.025448017 -0.020156868 -0.08183438 -0.057771027
-0.07949709 0.011392853 -0.09330982 -0.12239443 0.03418399 -0.014366317 0.078759775 0.070018634
0.08621033 -0.012644881 0.11236613 -0.06886922 -0.025254702 -0.039249223 -0.008915254 0.04031994
-0.07843748 -0.0048869597 -0.10023944 -0.07856273 -0.0070956578 -0.03178756 -0.07277566 0.054233875
0.033610556 0.0008765466 0.05340612 0.054070573 0.07959664 0.012986637 0.062073603 0.05059592
0.031917997 0.01590281 -0.06540596 -0.009821741 0.02551048 0.022963507 0.10896727 0.079087116
0.08838855 0.20623882 -0.033803385 0.15551533 0.031290874 0.082102634 0.019674426 0.13568513
0.1482935 0.043532334 -0.119735464 -0.19250332 -0.16943663 -0.020983296 -0.095573 -0.12133593
-0.07917421 -0.12575145 -0.19163223 0.020529835 -0.11850484 -0.12943879 0.0026149438 -0.11855012
-0.076960005 0.17808917 -0.024649898 0.06903942 -0.0013249697 0.14558028 0.23247069 0.15531573
0.1658349 -0.019943476 0.066186294 0.07004734 -0.10399234 0.014504846 -0.21340413 -0.014523946
0.046598084 -0.07624511 -0.023126798 -0.21385166 -0.02758599 0.088424206 0.0049712947 -0.023586508
-0.1574095 -0.21334663 0.10989348 -0.036437564 -0.13827144 -0.022399666 0.09752431 0.026998444

conv1.bias f4 [20]
00000000: 8850 69bd df82 e8be 5d91 b2be a784 68be
00000010: fd45 34be 0f98 a23d b2d6 cbbd f543 71be
00000020: b9af 9fbe c17b 9fbe 2dd4 9cbb 28a4 dcbd
00000030: 58fa c43d 8774 9fbe 75f7 103e 3e18 e9bd
00000040: 2de9 6fbe 933e adbe aea5 88be b6a0 bdbd
-0.056961566 -0.45412347 -0.34876528 -0.22706853 -0.17604823 0.07939159 -0.09953059 -0.2356108
-0.31188753 -0.31149104 -0.0047860355 -0.10773498 0.09618062 -0.3114359 0.14156897 -0.11381577
-0.23428793 -0.33836803 -0.26688904 -0.09259169

conv2.weight f4 [10, 20, 5, 5]
00000000: dd16 58bc a519 5fbd d25c 14bd 5b9a 1ebc
00000010: 9a68 3a3c b994 05bd 63e7 81bb 0bca 49bb
00000020: e216 293c c284 73bc 7bda 5e3c a3e9 1fbd
00000030: 7b7e 033c 8b3a c037 5fb7 adbc c73e 11bd
00000040: da89 c239 9601 9cbc 0d39 843c f624 813a
00000050: 9a52 36bc 135d 46bc 1f04 1dbd 6aec f1bb
00000060: fecf 11bd ddf5 59bd 214a e7bc ef3e 7abd
00000070: e5b6 efbb e101 9abd 0e20 ecbc 3eb7 13bb
00000080: fafe 49ba 4376 e63b 028c 9fbc 0d30 6dbc
00000090: 134e c9bc 1d85 813c d90d 923a 0837 8abc
000000a0: 3d58 80bc dc3a 9bbb 3e19 41bd a32e 03bd
000000b0: 327d 34bd ee23 7bbc dd7f 48bd f46d 1bbd
000000c0: 0bc6 18bd d9b8 9fbc a9f6 263d 701d 8d3d
000000d0: 1268 483d c3c3 69bc 9a2b 7a3d 5056 a63d
000000e0: 1fff 7a3d b754 8c3d d8ba 463d 56f4 54bc
000000f0: 7f3f c73c 430c 683c e2a4 203d 74d2 1c3b
00000100: 4538 823d 8e43 a83c d587 143c 3bc7 323d
00000110: f9d4 a9bb 0fe8 a8bc f348 02bd cd3c 473d
00000120: 6a84 20bc 8a09 483d 50ae 80bc 1883 89bd
00000130: d03e 48bd 37c2 76bc d6bc 43bd a8a5 edbc
00000140: a2af ccbb 0cb3 54bd 10fb 44bc 79e6 4abd
00000150: 318a 0ebd a06d 95bd 8eb4 1ebd 1447 5ebd
00000160: 6a03 cbbb 48c9 38bd 7c54 55bd 6418 84bb
00000170: faa3 b63b 4637 15bc eb8c 2fbd 4a31 9fbd
00000180: 255b 95bc 123c d8bc 5015 6cbd 0660 1b3b
00000190: 62dc 41bc f2cf 163d e9b4 e8bc 94df d5bb
000001a0: c31e 56bd 94b6 b83c 202b f0bc 7fc0 1f3d
000001b0: dab1 b13c 4b6e 243c 7e65 06bd f16f 1c3d
000001c0: 57bf 173d 7994 0bbd c9dc 69ba 0d8e 27bc
000001d0: 5c8b 2b3c 23cb febc 60e1 bbbc b4da 03bc
000001e0: 3182 0c3d 00ac db3c cd49 e2bc 542d 53bc
000001f0: 1cd8 143d da12 303d d721 3e3d ce54 f03c
00000200: 9b17 0ebc 5b31 9d3c 6e26 b03c 1ebf 30bd
00000210: 2781 cd3c a032 d73c c1d6 d53c 4d85 83bc
00000220: b4f7 48bc 66a8 b23c 49cd 633d 497b 0b3d
00000230: 4411 95bc 3d5b 0e3d e73e 1f3d 335f cabc
00000240: 8dae e7bc 906c 523c e816 293d bf49 523d
00000250: 1709 8ebb d0ca 0dbc aaa7 063d f884 aa3c
00000260: c196 3d3d 910f 793d c265 213d d292 803d
00000270: 27cf 493d 48c4 553c ae6e d53b 4e17 8cbc
00000280: 6e54 3f3d a785 923c d13a 133b f977 84bb
00000290: 8ac2 043d cd58 0c3d 422b 573d 61a0 3c3d
000002a0: 8393 6cbc 9fd4 2d3d 58ce 4f3c 4acb 843b
000002b0: 7a8b e73c 919d df3c 832b 8a3c 219c 1cbd
000002c0: 2c45 4abd a702 543b f4ee 87bd a833 0fbd
000002d0: 5d25 a4bd 5622 49bd ffbe 39bd 3d27 25bd
000002e0: 5497 91bc f1e1 96bc 4a8e 73bd 2638 63bd
000002f0: 369c 3abd badb 56bc e73c 51bb 7ea7 c4bb
00000300: 94e0 dcbb 3ad0 57bb 7661 36bd 1fe6 97bd
00000310: 0976 f53b 624c 8cbd 5cfa 58bb ff31 16bd
00000320: 95fa 1f3d b582 0cbd 9d8e 9abc 4825 f0bb
00000330: 30b4 9fbc 6e3a 99bb de44 a9bb 4cb4 233b
00000340: 6edc 1b3d 4ada 443d d54e c7bc 20f7 b6bc
00000350: d1a0 813d ad32 6d3d 2b40 4c3d 1a5c 083a
00000360: 0731 19bd cc00 e73c b719 e13c d76e d93c
00000370: 1bdb 4a3c f4ae fbbb 080f a23c a941 6fbc
00000380: 29d0 af3c 52df 54bd ab82 16bb 1cc0 dfbc
00000390: 5ae2 063c eb57 1f3c 805d 0bbd e8d5 603d
000003a0: 6e6a 8f3b 1fb9 17bd 7ba3 1bbd 2a50 cc3c
000003b0: dc17 27bc 649e 403d 6213 6c3c 6d02 57bd
000003c0: fb64 7f3c 3e5b 4c3c e255 353d d17f 8bbc
000003d0: 6182 ad3c 77ee 3abd e92b e2bc daf8 8cbc
000003e0: a73c 4dbd 1681 8dbc 295b 833d 2791 183d
000003f0: 2df4 b9bc c2f0 0f3d b0a6 033d 54de 013c
-0.013189045 -0.054467816 -0.036221333 -0.009680356 0.011377478 -0.032612536 -0.003964351 -0.0030790593
0.010320397 -0.014863195 0.0136018945 -0.039041173 0.008025761 2.2915445e-05 -0.021205602 -0.03546026
0.0003710527 -0.019043725 0.016140485 0.0009852934 -0.011128092 -0.012107152 -0.03833401 -0.007382919
-0.035598747 -0.05321299 -0.02823359 -0.061095174 -0.007315504 -0.075198896 -0.028823879 -0.002253964
-0.0007705536 0.007033141 -0.01947594 -0.014476788 -0.024573362 0.015810544 0.0011143043 -0.016871944
-0.015667075 -0.004737241 -0.047143213 -0.032026898 -0.044064708 -0.0153283905 -0.048950065 -0.037946656
-0.037298243 -0.019497322 0.040762577 0.068903804 0.048927374 -0.014267865 0.061076738 0.081219316
0.06127846 0.068520956 0.04851803 -0.012997707 0.02432227 0.01416308 0.039219745 0.002392915
0.06358389 0.020540025 0.009065588 0.043647032 -0.005182859 -0.020618467 -0.03180785 0.04864197
-0.009797195 0.048837222 -0.015708119 -0.06714457 -0.048888028 -0.015060953 -0.04778751 -0.029009655
-0.006246523 -0.051928565 -0.012022749 -0.049536202 -0.03479976 -0.072963 -0.03874641 -0.054267004
-0.0061954753 -0.04511383 -0.052082524 -0.004031228 0.0055737467 -0.0091074165 -0.042859 -0.07773073
-0.018231938 -0.026395831 -0.057637513 0.0023708357 -0.0118323285 0.036819406 -0.028406577 -0.0065268967
-0.05227543 0.022547998 -0.029317439 0.039001938 0.021691252 0.0100360615 -0.032811634 0.038192693
0.03704771 -0.03407714 -0.0008921144 -0.010226739 0.010470238 -0.031102723 -0.022934616 -0.008047748
0.034303848 0.026815414 -0.027623082 -0.012889225 0.03633891 0.04298673 0.04641899 0.029337313
-0.00867262 0.019188574 0.0215027 -0.043151014 0.025085999 0.026269257 0.02610338 -0.016054774
-0.012266088 0.021808814 0.055615697 0.03405312 -0.01819671 0.03475498 0.038878348 -0.024703598
-0.028281474 0.012843266 0.04128161 0.05133986 -0.0043345797 -0.008654311 0.03287474 0.020815358
0.04628635 0.06080586 0.039403684 0.06278004 0.04926982 0.013047285 0.006513438 -0.017100956
0.046711378 0.017885996 0.0022465477 -0.004042622 0.03241209 0.034264375 0.05253149 0.046051387
-0.014439466 0.0424391 0.0126834735 0.0040525543 0.02826475 0.027296813 0.016866451 -0.038234834
-0.049382374 0.0032350214 -0.066373736 -0.034961373 -0.08014939 -0.04910501 -0.045348164 -0.040320624
-0.017772354 -0.018418284 -0.05946187 -0.05547347 -0.04555913 -0.01311391 -0.003192717 -0.006001412
-0.006740639 -0.003293051 -0.04452654 -0.07416939 0.0074908775 -0.06850506 -0.003310821 -0.036668774
0.039057333 -0.03430434 -0.018866831 -0.007328663 -0.0194951 -0.004676155 -0.0051656803 0.0024979291
0.038052015 0.04805974 -0.024329582 -0.022334635 0.063295014 0.057909656 0.049865883 0.00052017125
-0.03740027 0.028198622 0.027478082 0.02654211 0.01238134 -0.007680768 0.019782558 -0.014603057
0.021461563 -0.051970787 -0.0022966068 -0.027313285 0.008232677 0.009725551 -0.034024715 0.054891497
0.004376701 -0.03704178 -0.037997704 0.024940569 -0.01019856 0.047026053 0.014408918 -0.052492548
0.01558804 0.012472926 0.044271357 -0.017028721 0.021180334 -0.045637574 -0.027608829 -0.017208505
-0.05010667 -0.017273467 0.06413872 0.037247803 -0.02269944 0.035141714 0.032141387 0.007926542

conv2.bias f4 [10]
00000000: 9901 0d3e a8e1 61bd 0096 a0be b0cc 17be
00000010: 775d 89bd b991 cb3d 86ad d9bc 22bb 013d
00000020: a4db abbe 202c 7a3d
0.1377014 -0.055146843 -0.3136444 -0.14824176 -0.0670728 0.09939904 -0.026572 0.031672604
-0.3356601 0.061077237

fc1.weight f4 [120, 250]
00000000: 88f4 24bd f3a0 aabc 940c 0d3d 4737 22bd
00000010: 3ec7 283b ae24 febc 8b58 893d 236a 513d
00000020: 2420 73bd dac1 d0bc 2e18 063b 6b75 f63c
00000030: 7414 7d3d 8334 5ebd 9297 0c3d 6803 57bd
00000040: ad31 53bd 13d8 34bd 2e46 c53c 4007 3a3d
00000050: 93c7 803d 9c37 30bc 2800 c2bc c2fb ee3c
00000060: 9297 0e3d 219c 513d dad2 943b 28aa a83b
00000070: b4b4 1e3c 07ec 01bd fbea 0ebd 6f8b 63bd
00000080: 1057 63bd 4be6 f93b adea a9bc 3f72 2b3d
00000090: 50c9 0bbd c3f8 59ba 3bad 3abd df6f 123d
000000a0: 4268 b1bc 869b 37bd 9962 70bc 320f 65bc
000000b0: 873d fb3a 6eed d9bc b372 81bc 083a 75bd
000000c0: afb8 493c a743 46bc 0466 40bd 8f0e 2abd
000000d0: 6fa1 333c 32db 32bd 8d7d 38bd e8cb 38bd
000000e0: fc3e ca3c 85e5 5d3b f7b7 9d3c ec92 c5bc
000000f0: 9a17 c53c a588 473d 2c98 243d 01f1 e1bc
00000100: 899d efbc 83ee 98bd 72c4 143d ff6c ccbc
00000110: 89f3 6cbd 463c 1abc 8718 973c d89e 8abc
00000120: fcd9 853c a074 24bd 6045 ff3c d615 083d
00000130: 0316 6dbc dfb2 773c 41bf 0ebd 95dc b5bc
00000140: 69d2 853d f7b3 4f3c 3b3b 863d bc0e 38bd
00000150: a1ec 7a3c 4db0 113d 3831 f2bb 8218 69b9
00000160: 2221 20bd e2e4 793d 4718 9a3c bc92 fe3a
00000170: ff4b 6f3d d42d 2fbd d559 fe3c 5bb9 1dbc
00000180: fb3b cbbc f06c adbb 8d74 0c3d a055 18bc
00000190: 31ef 863c 08f1 44bd fcf7 a7ba 7a65 303c
000001a0: 65af 2dbd 9fe2 77bd b37c c43c 2a8c 03bd
000001b0: 21af 443d 205f e33c 94b8 dfbb 6e9f d13c
000001c0: af25 0c3d 0b86 3d3c bc30 58bd 4839 53bc
000001d0: 5df4 3c3d 3883 19bb 9b31 513d 1460 f0bc
000001e0: abda e93c e8cb 17bd 8866 14bc c04d d13b
000001f0: f630 1c3d 0d8e ea3c a53a 443c 78a5 673c
00000200: 2183 8d3d 009e 173d 6620 8b3d e635 8a3d
00000210: ffd3 823d ee7a 8abb abe7 8cbb ae8d a3ba
00000220: 00ed d4bc 188a 4d3d 30f5 1b3d 3c8f 31bc
00000230: bd58 1dbd 2fb6 d7bc 6967 66bd 5a47 29bb
00000240: f955 8ebd b6d4 343d 9581 9cbc 7170 7bbd
00000250: a4bd c2bc 5a2a 1abd 8ec8 07bc c5d4 323d
00000260: ee78 81bc 91fd 743d 1138 d93b b19d d63c
00000270: c666 5a3d 4f4d 463d bca3 6dbd 3dc9 933c
00000280: 9dc4 e33b c013 023d 0902 553c 6b2a 293c
00000290: 1e05 24bd ae74 193d de1e 0a3c dba7 adbc
000002a0: 0f37 e53c 77b1 86bd 6d66 97bb 54c4 413d
000002b0: 83b9 84bd fbbb 20bd a8f7 5f3d 73ec 7e3d
000002c0: 6050 00bd 8e61 773d 602f 363d 22ce af3c
000002d0: 83f4 a43c e1f7 6d3d c937 08bd 4501 38bd
000002e0: 6368 473c a59d ea3b 2078 cebc 767c 1abd
000002f0: b80f 4fbd 9f07 48bd 3bc7 2c3b 9cec 2dbd
00000300: 2fb2 b2bc e5ef 303d b1f8 77bd 4562 8c3d
00000310: 013d c9bb 0931 1c3d 85c8 15bd 6c33 473d
00000320: 30a6 663d 0184 93bc 0c48 b23c 48cf 043d
00000330: 33d2 29bd f07c 3d3d 7e9c a43d 3726 70bb
00000340: 44eb c2bc 3bb6 15bc f822 58bc 1968 213d
00000350: 1b95 753d e52d 603c df8e 973c 815a 073d
00000360: d892 373d 3c05 483c a354 d8bc eaf4 663c
00000370: 940d 273d 0624 a6bc 68e1 69bc 7eb7 163d
00000380: f967 133d c3e5 833c 4618 833c 704b 8a3c
00000390: 2f99 acbc 3a44 023d 166c 4fbd 1c53 b33c
000003a0: 0446 2bbc dfdf babc 11ea 7f3d 4ea9 863c
000003b0: b653 3cbc 2664 2abd 4ac7 8b3d 5f06 7b3c
000003c0: 3961 e5bc 35fe c43c 0260 843b 75c0 8bbc
000003d0: d12a 163d 6a91 91bb b06d ccbc 0199 0ebd
000003e0: c0c8 f83b 909f 27bd a3f0 e33c 5e7d d0bc
000003f0: 96b4 a13c 0788 8ebc 169e 60bd ca50 92bc
-0.040272266 -0.0208287 0.034435824 -0.039603498 0.0025753523 -0.03102335 0.06706341 0.05112661
-0.059356824 -0.02548306 0.002046119 0.030085286 0.061787084 -0.054249298 0.034324236 -0.052493483
-0.051561046 -0.044151377 0.024081316 0.04541707 0.06288066 -0.010755446 -0.023681715 0.029172782
0.034812517 0.051174287 0.004541737 0.0051472373 0.009686638 -0.031719234 -0.034892064 -0.055552896
-0.05550295 0.00762633 -0.020741785 0.041857 -0.034127533 -0.00083149615 -0.04557536 0.03575122
-0.02165616 -0.044826053 -0.014671945 -0.013980674 0.0019168117 -0.026602473 -0.015801763 -0.059869796
0.012312098 -0.0121010905 -0.04697229 -0.04151779 0.010963782 -0.043666072 -0.04504161 -0.045116335
0.024688236 0.0033858728 0.01925276 -0.02411791 0.024059106 0.0487143 0.040184185 -0.02758074
-0.029249923 -0.074673675 0.036320157 -0.024954317 -0.05784944 -0.009413784 0.018444313 -0.016921446
0.016339295 -0.040150285 0.03116101 0.03322395 -0.01447058 0.01511833 -0.034850363 -0.022199908
0.06534273 0.012677184 0.06554266 -0.044935927 0.015315206 0.035568524 -0.0073911212 -0.00022229741
-0.039094098 0.061009295 0.018810404 0.0019422392 0.058422085 -0.042768314 0.031048695 -0.009626712
-0.024808874 -0.0052925274 0.03429084 -0.009297758 0.016471477 -0.048081428 -0.0012814994 0.010766381
-0.042403597 -0.060518857 0.023985242 -0.032116093 0.04801858 0.02775532 -0.0068274233 0.025588717
0.034215625 0.011567603 -0.05278085 -0.012892075 0.04613148 -0.002342416 0.051072698 -0.029342689
0.028546652 -0.037059695 -0.0090576485 0.0063874424 0.03813263 0.028632188 0.011976873 0.014138572
0.069097765 0.037015915 0.06793289 0.067485616 0.06388091 -0.00422608 -0.004300078 -0.0012478137
-0.025991917 0.050180525 0.038075626 -0.010837372 -0.038414706 -0.02633199 -0.056250963 -0.0025829882
-0.06949992 0.04414817 -0.019104758 -0.06138653 -0.023772068 -0.037638046 -0.008287562 0.043659944
-0.015804734 0.059812132 0.006628998 0.02619824 0.05332067 0.04841357 -0.058017477 0.018040294
0.0069509284 0.031757116 0.0130009735 0.010325055 -0.040043943 0.03746479 0.008430211 -0.021198204
0.027980356 -0.065768175 -0.0046203644 0.047306374 -0.06480696 -0.039241772 0.054679543 0.062237214
-0.03132665 0.06039577 0.044478774 0.021460596 0.020136124 0.058097724 -0.033256326 -0.044923086
0.012170884 0.007159906 -0.025203764 -0.03771635 -0.0505521 -0.048835393 0.0026363868 -0.042461976
-0.02181348 0.04319753 -0.060539905 0.06854681 -0.0061413054 0.0381327 -0.036568183 0.048633024
0.056310833 -0.01800728 0.02176287 0.03242424 -0.041460227 0.046261728 0.08037661 -0.0036643872
-0.023793824 -0.009137685 -0.013191931 0.039405916 0.05995665 0.013682817 0.018500743 0.033045296
0.044817775 0.012208279 -0.026407545 0.014096478 0.040784433 -0.02028085 -0.014274932 0.036796086
0.035987828 0.01610077 0.016002785 0.016881675 -0.021069137 0.031803347 -0.05064019 0.021890216
-0.010453705 -0.022811828 0.062479082 0.016438153 -0.011494568 -0.041599415 0.06825121 0.015321343
-0.028000461 0.024046997 0.0040397653 -0.017059544 0.036661927 -0.0044423835 -0.024954647 -0.034813885
0.0075922906 -0.040923655 0.027824705 -0.025450405 0.01973943 -0.017398847 -0.054838262 -0.017860789

fc1.bias f4 [120]
00000000: 9976 133d 78f3 8fbc e06d 9a3d f041 94bd
00000010: ab51 233d be31 92bd bc60 0c3d 28bf 50bc
00000020: 5335 6bbd 866d 1fbd 3d9c 93bd bfb5 3c3d
00000030: 6410 e0bc 598b f63b ba39 77bc 9fe9 89bc
00000040: d445 e63c f4bb 5e3c 8691 293d cf62 22be
00000050: bfd4 f03c f72d 803c 8f00 5b3d a02c c6bd
00000060: 4397 c7bd b6f7 4a3d b07c d0bc f568 a93c
00000070: 4b50 8abc 8f69 40bd 552f 6e3c 69a3 9abd
00000080: 6864 4c3c cfd8 dbbd 68db 093d 4c7d a73b
00000090: 241e eb3b 2953 2cbd 0260 34bc 92cb 91bc
000000a0: 303a 80bd 89ac 723c ef02 17bc 7f5a acbd
000000b0: 0746 a8bd fd4c 873d 8473 6cbd 2226 e6ba
000000c0: 96a6 133d cd01 823b f045 9bbd e5f8 3c3d
000000d0: 3bd2 ed3c 0854 0bbd 5c6c 1fbd d967 7dbd
000000e0: bb6b 31bd 415a 343d 34b1 a53d 3f5b 42bd
000000f0: ef81 913d d088 c0bb db65 ffb9 a4f8 f7bc
00000100: 961b 38bc 85d6 84bd 577e 32bd 8e72 00bd
00000110: 878f 90bc d18f 65bd 70d9 953d ed1d 1a3b
00000120: 3884 6ebd df32 0e3d 9421 953d 3689 273d
00000130: c977 05be 0162 32bc d5a9 103e dd5b e53d
00000140: dda1 c4ba e883 2b3d 858f b83c 1134 633d
00000150: 648c 37bd 94c7 903d 56ca b0b9 f33b 73bd
00000160: ec16 d03d c9ff 313d 62e9 97bd 530f 09bb
00000170: 12e4 f33d 25e0 07bc 5376 683d f1e9 c4bb
00000180: 9b17 b2bc 8a04 663c 5bb1 2a3d 907f cdbc
00000190: 89b6 60bd e15c 35bd a7b4 d23c 27e5 69bd
000001a0: f1e3 34bd 1b22 2cbd 468e 1ebd 54bb d93d
000001b0: e33a d83d 5931 da3d 07b6 623d 78c6 b83b
000001c0: 976d 0fbd bd6d 24bd 2335 f23b 906b 86bd
000001d0: d906 1d3d 235a bd3d 62b1 063d b8b1 1e3c
0.036001775 -0.01757215 0.07540488 -0.07239139 0.039872807 -0.07138394 0.03427194 -0.012740888
-0.0574239 -0.03892281 -0.072075345 0.046071764 -0.027351566 0.0075239358 -0.015089447 -0.016835032
0.028109469 0.013594616 0.041398548 -0.15858005 0.02939832 0.015646918 0.05346733 -0.0967648
-0.09745648 0.04955264 -0.02545008 0.02067993 -0.01688399 -0.04697567 0.014537652 -0.07550699
0.012475111 -0.10734712 0.033656508 0.005111372 0.007175224 -0.042071495 -0.011009218 -0.017797265
-0.062610984 0.014811643 -0.009217008 -0.08415698 -0.08216482 0.06606481 -0.05772735 -0.0017558972
0.03604754 0.0039675 -0.07581699 0.0461358 0.02903091 -0.034015685 -0.0389217 -0.061866615
-0.04331563 0.044031385 0.080904394 -0.0474503 0.07104861 -0.0058756843 -0.00048713278 -0.030269928
-0.011237046 -0.06486229 -0.04357752 -0.031359248 -0.017646564 -0.056045357 0.073168635 0.0023516372
-0.058231562 0.034716483 0.07281795 0.04090234 -0.13033976 -0.010887624 0.14127286 0.11199162
-0.0015001852 0.041873842 0.022529373 0.055469576 -0.04481162 0.070693165 -0.00033720088 -0.059383344
0.10160622 0.043456826 -0.07417561 -0.0020913675 0.11908735 -0.008293186 0.056753468 -0.0060093333
-0.021739772 0.014039168 0.041673046 -0.02508524 -0.05486158 -0.04427803 0.025720907 -0.057103302
-0.044162694 -0.042024713 -0.0387099 0.10631433 0.10558107 0.106539436 0.055349376 0.0056388937
-0.035016622 -0.040143717 0.0073915883 -0.06563485 0.03833661 0.09245708 0.03288401 0.009685926

fc2.weight f4 [84, 120]
00000000: 852d 9abb 37a7 12bd bd7a b03d cf63 19bd
00000010: 07f5 b13d 90dc 4a3c 3334 86bd d045 7e3d
00000020: 64f2 60bd 9610 a7bd 5594 353b 2b7b c0bd
00000030: 0079 e7bc 67ec 6e3a fdc0 683d 60e4 483d
00000040: ce45 c2bd 9612 bfbd 8c30 7abd c61b cf3c
00000050: c7d8 b2bd 6ba2 ce3c 26f5 b23d ae6b d0bc
00000060: fdbd 17bd eb39 8f3c f734 793d 1b85 813d
00000070: d187 bd3d c447 883d a904 b7bd ee45 babd
00000080: 3e0b c53d 3585 8cbb 1908 a03d 1e0b 473d
00000090: ca45 87bc 85fc ac3d 62d8 e1bc de5b cebc
000000a0: a3cd 85bc 8f6d a7bd e159 9e3d 8226 a93d
000000b0: 0600 913c 6ef6 06bb ae93 a03d 30af ecbc
000000c0: 04bb 8ebc 37bd 3b3d 75b1 463d 203b e9bc
000000d0: 25b0 873d 268f 153d d65f 6a3c 7a58 26bd
000000e0: 20a5 073d b2b9 463d e580 36bd 980b 07bc
000000f0: 6822 613d 0621 38bc d2d5 53bd e24b 3a3c
00000100: bcc9 aa3d bf18 353d c58b 783d 8aab c8bc
00000110: f441 3fbd 803f d4bc 628f 553d 58d2 a6bd
00000120: 5cae 033d 9075 47bd ea0e 9d3d 4a46 973d
00000130: 10a7 b13d ce40 833d 5219 b7bd c367 cabc
00000140: 4205 123d 593e 96bd 588f 203c c7d5 e3b9
00000150: 2369 d5bc d477 babc 6ef1 e23c b65b 953d
00000160: 593e c8bd a89c 08bd 3983 40bd 64ce fabc
00000170: 780e 94bd 86cb 423d a627 c03c 29fd dd3c
00000180: f998 aa3d 3e2a c7bc bfe6 b83d 6053 e1bb
00000190: b078 8b3d 3ac9 613c c810 b9bd 45b8 aa3d
000001a0: b638 e53c 7df0 523b 9c0d 87bd cc07 7d3d
000001b0: f694 9bbd b953 2ebd 7d0c d1bd c687 273d
000001c0: 3d9b 593d 2f6a eebc ee7e cb3d e31e 37bd
000001d0: 8599 c33c 1b33 a7bd eac1 77bd 066e cf3c
000001e0: 361b 9a3d cf95 103d d5b8 1cbc 0992 0abd
000001f0: 7aca 6dbb faa7 34bd d950 d23d d757 aabd
00000200: 5f2c 79bc a1b6 813d 1c95 3f3d c043 b63d
00000210: 61ef 76bd 1935 3a3d 10de ab3d dab8 453d
00000220: 7d83 cbbd 1796 90bd 48cf ae3d 657e 9d3d
00000230: ea01 283d 3cf4 343d b13d 95bd 4f08 183d
00000240: cee1 c53d 82e3 7abd 8f7b 893c 58fb 373d
00000250: 9f35 013e 9bb2 2b3c 682b 9ebd 59d0 b53d
00000260: 60d1 b0bd 695f 613d 2c72 2abc e565 9bbd
00000270: ded5 babd 0911 10bd 8c43 7fbd fe6e d63d
00000280: e585 9abd 42e8 a8bd 1b6f 0bbc 7ea9 523d
00000290: 4132 f93c 0986 97bd 09fc 46bd 48b0 8fbd
000002a0: 1bfa 953c c942 023e 144c 45bc a4a0 953d
000002b0: e138 89bd c427 cebc 8587 05bd e28c 61bd
000002c0: 8866 153d 5c91 893c c6e5 763d c064 b63c
000002d0: ebdf 433d 4744 473d 77f1 dabc 368f 6a3c
000002e0: 0568 823d a604 083d 3699 e43c e658 97bd
000002f0: 630c 893d 5e67 41bd d16e 2dbd 2b2b 85bd
00000300: 38cd bc3c e8cb 8ebb 1404 493d a418 a23d
00000310: c833 cd3c 1219 b3bd 868f 793d b627 d83c
00000320: 54fe 743c 51a3 603b 0722 a63b fb4b 3abc
00000330: 3c04 4a3d 3745 0cbd 3319 933d a954 7d3d
00000340: 30a2 35bd 3f8b e33c d116 ac3d 9d0e 4dbd
00000350: 7315 29bd 30d2 8dbd 6b70 80bd a2f3 d73d
00000360: 7d31 893c 231a 79bd 3738 9bbc 8f97 793d
00000370: b5e5 0dbc cb1b b53d bbd6 44bd 1b9a 35bd
00000380: 6c29 aa3c 084b c53b 80f8 50bd a168 633d
00000390: e965 e43c 6fd2 713c 7ba7 cebd 3c3c b03d
000003a0: 6136 7dbc 8bb2 8b3d 46ed aebc 7b7a 383d
000003b0: 0f3e 68bb 735d c4bd aa7e c2bc 062a 0cbd
000003c0: 4ec8 3f3b f664 f53c c3c6 bb3c ccd3 88bd
000003d0: a724 56bc feed d3bd 02d1 303d 2d3e acbc
000003e0: c557 9cbc 9a6f 1abd d4b8 e43c 2301 1f3d
000003f0: e780 b6bd 95d1 70bc fa5f 24bd 009f b13b
-0.0047051334 -0.035804 0.086171605 -0.0374487 0.086893134 0.012381688 -0.06552925 0.062078297
-0.05491866 -0.081574604 0.002770682 -0.093984924 -0.02825594 0.0009114206 0.056824673 0.04904592
-0.094859704 -0.09329717 -0.061081454 0.025281798 -0.08732753 0.025223931 0.087381646 -0.02544197
-0.03704642 0.017483672 0.060841527 0.06324216 0.092544205 0.06654313 -0.08936436 -0.09095369
0.09621285 -0.0042883405 0.078140445 0.048594587 -0.01651277 0.08446602 -0.027569 -0.02519029
-0.016333407 -0.081751935 0.07731987 0.08259298 0.017700206 -0.002059366 0.07840668 -0.02889213
-0.01742316 0.045834746 0.04850908 -0.028470576 0.06625394 0.03651347 0.014305076 -0.04061172
0.03311646 0.048516937 -0.044556517 -0.00824251 0.054964453 -0.011238342 -0.051717587 0.011370631
0.08339259 0.044213053 0.06068017 -0.024495859 -0.046693757 -0.025909185 0.052138694 -0.08145589
0.032148704 -0.0486961 0.0766886 0.073864534 0.08674443 0.06408845 -0.08940376 -0.02470768
0.035649545 -0.073361106 0.009799801 -0.0004345609 -0.02605111 -0.022762217 0.027703013 0.07292883
-0.09777517 -0.033352524 -0.047000144 -0.030615993 -0.07229322 0.047557376 0.023456406 0.027098255
0.083299585 -0.024312135 0.09028386 -0.006876394 0.06810129 0.013780886 -0.09036404 0.08335928
0.027981143 0.00321868 -0.06594393 0.061775014 -0.075967714 -0.042560313 -0.1020746 0.040900968
0.053126562 -0.029103367 0.09936319 -0.04470719 0.023876915 -0.081640445 -0.060487665 0.025321018
0.07524721 0.03529912 -0.009565552 -0.033830676 -0.0036284016 -0.044105507 0.10269327 -0.08317535
-0.015208333 0.06333662 0.04677306 0.08899641 -0.060286883 0.045460794 0.083919644 0.04827199
-0.09937189 -0.07059877 0.085356295 0.076901235 0.04101745 0.044178233 -0.07287157 0.0371173
0.096622095 -0.061252125 0.01678255 0.044917434 0.12618111 0.010479595 -0.07723123 0.0887763
-0.08633685 0.05502263 -0.010403197 -0.07587794 -0.09122823 -0.035172496 -0.062320277 0.10470389
-0.075450696 -0.08247425 -0.008510376 0.05143117 0.03041947 -0.07398612 -0.048580203 -0.07016045
0.018307736 0.12720789 -0.012042064 0.073060304 -0.06700302 -0.025165446 -0.032599945 -0.055065997
0.036474735 0.016792946 0.060277723 0.022264838 0.047820967 0.0486491 -0.026726468 0.014316371
0.063674964 0.033207558 0.027905088 -0.07390003 0.06691816 -0.04721772 -0.04234201 -0.06502374
0.023047075 -0.0043578036 0.049076155 0.07914856 0.025049105 -0.08745016 0.06092789 0.026386123
0.014953215 0.0034277032 0.0050699743 -0.011370654 0.049320444 -0.034245696 0.07182541 0.061848316
-0.044344127 0.027776359 0.084027894 -0.050062764 -0.04128022 -0.06924856 -0.06271442 0.10544516
0.01674723 -0.06081594 -0.018947704 0.060935553 -0.008660723 0.08843192 -0.048056345 -0.04433642
0.020771705 0.0060209073 -0.051018238 0.055519704 0.027880626 0.014759644 -0.10090538 0.08605239
-0.0154548595 0.06821164 -0.021353375 0.04503868 -0.003543738 -0.095881365 -0.023742039 -0.034219764
0.0029263678 0.029955368 0.022921925 -0.06681022 -0.013070262 -0.10348128 0.043168075 -0.021025741
-0.01908482 -0.037704088 0.027920164 0.038819443 -0.08911305 -0.014698406 -0.040130593 0.0054205656

fc2.bias f4 [84]
00000000: 2364 4dbd fd32 d0bd f8cc 943d 50e0 1cbe
00000010: e640 ac3d 25de 9dbb 5ccc 0cbc 4e47 03bd
00000020: 5703 3ebd 0168 1dbe 19af 1fbd 3838 29bd
00000030: 7a50 013e 868c 0fbe e715 483d 134d 1dbd
00000040: f823 253d c960 74bd 3c60 21bc b5dc 24be
00000050: 7cfb b33c b29a a23b 3feb 78bd 99d7 093e
00000060: 6a10 40bd 3f71 89bc 8c0b 55bd 1838 c43c
00000070: 3151 5e3d 7a28 d0bd 1736 dfba 291c 613d
00000080: 0410 9e3c 19cc 55bd 9b74 ed3c d058 ac3b
00000090: 7736 1e3c a517 893d 9f39 983d f9ec 023d
000000a0: f82b 8f3c 2910 ba3e 6fe1 6dba 913e b33c
000000b0: 1ff1 c03c 07a9 4c3d 4ea1 593d cff8 c43d
000000c0: d0c9 a3bd 2701 823d 33e9 803c 9436 923e
000000d0: 2fb7 f63b 23a3 103d 33bd b8bc 7c8a 5bbd
000000e0: ed92 8e3d dfb8 63bc c52f a43d 09e8 b73c
000000f0: 6bb0 a3bb b871 f6bd 0571 2e3d 1c0b fd3a
00000100: bbe6 c43c e9cd 26bc 284d 923d 0a19 8cbd
00000110: 40cf 1b3c d185 783d 5ae8 3abd 2708 823c
00000120: e488 adbd b894 b6bc 65a3 713e 385a 05bd
00000130: fc17 ce3d 625c 0a3d 3091 b7bb eff0 e33d
00000140: 471d a8bb ab18 873d ce2a 00bb 025b 72bd
-0.050144326 -0.10165975 0.07265657 -0.15319943 0.08410816 -0.0048177415 -0.008593645 -0.032050423
-0.046389904 -0.15371706 -0.038985346 -0.04131338 0.12628356 -0.14018449 0.048849013 -0.03840358
0.040317506 -0.059662614 -0.009849604 -0.16099818 0.021970503 0.004962289 -0.060771223 0.1346115
-0.046890654 -0.016777633 -0.052012965 0.023952529 0.05427665 -0.1016397 -0.001702967 0.054958496
0.019294746 -0.052196596 0.028986266 0.0052596107 0.00965654 0.06693963 0.07432865 0.031964276
0.01747702 0.36340454 -0.0009074425 0.02188042 0.023552475 0.049965885 0.053132348 0.09617769
-0.07997477 0.06347876 0.015736198 0.28557265 0.0075291614 0.03531183 -0.022551155 -0.053598866
0.069616176 -0.013899057 0.08016924 0.02244951 -0.004995396 -0.12033409 0.042588253 0.0019305679
0.024035802 -0.010180929 0.07143623 -0.06840713 0.0095098615 0.060674492 -0.045631744 0.015873028
-0.084733754 -0.022287712 0.23597486 -0.032556742 0.100631684 0.03377951 -0.0056020245 0.11129939
-0.0051304433 0.06596502 -0.0019556764 -0.059168823

fc3.weight f4 [4, 84]
00000000: 4922 1f3e cca8 2d3e 0a95 3ebe 862d dd3d
00000010: fc8d f03d 49c4 01bd 27d5 adbd e4ee eabd
00000020: 60f3 64bd e167 613e 1ed9 23bd 5dd4 cebd
00000030: 3be5 f7bd fbdb 253e b523 63bb ff32 d43c
00000040: a5f6 8f3c 6645 5a3d f6f8 2dbe 278c 813e
00000050: c618 a1bd fe67 553d e5cd a3bd 5b64 e6bd
00000060: 8157 723d 28a8 2cbd a4d3 2e3e 9f3b 18be
00000070: 1e59 6e3c b523 f83d 3764 d1bc 15ff a43d
00000080: f471 b93d 26d7 a23d e41c c43d 8d43 d9bd
00000090: f023 b43d d527 8a3c bb18 c1bd 243b b5bd
000000a0: 6394 053e f9a5 6abd e027 8d3b 1688 3cbd
000000b0: d3e3 adbd 566b c13d 9447 23be 1007 11be
000000c0: 08e8 913d 2378 91bd dc20 bb3c 48ee b5bd
000000d0: 8863 3abe ebc2 00be 9c1d 5fbc 11b6 11bd
000000e0: 0553 95bd 05a1 803d af62 68bd 6bdb 01be
000000f0: c874 ebbd 7516 303d 2068 0bbe a12a e73d
00000100: 5ead b7bd e7c4 19be 95a8 93bb 4048 63bd
00000110: 2a11 babd 28bc 153e 5aa0 14bd 1350 b8bd
00000120: 5ce8 d5bc a868 143d fb58 39be 1c99 d03d
00000130: e2c9 b4bb ade9 47bd d75d b6bb c5f8 a7bd
00000140: c6af ca3c fa2f 5bbd 71c0 dcbd 4507 c0bd
00000150: a862 8bbd 5358 b0bd f86d da3c 7dbe 5ebe
00000160: 252f f63d 061e d53c aaed b5bd f297 eb3b
00000170: ddae a83c a760 a7bd d292 cd3d 2406 99bd
00000180: 1b1f 123e 7d78 ffbd 2e39 6dbd 423f 81bd
00000190: 3ce3 c13d 8c5b 5bbc 57a9 783d fae3 6bbe
000001a0: bcdf c73d 8c65 c7bc e25d c0bd 2b1a ba3d
000001b0: fbf4 e3bd 7c27 98bd 4370 063e a07c 2f3d
000001c0: 504a e539 9eed 51be 1b24 ebbd bab5 253e
000001d0: c654 69bd f116 77bd be7a 943d a26b ab3d
000001e0: 3959 8fbd 6990 fe3c f735 3c3d ffb6 9c3d
000001f0: 1edc bbbd 4565 e73e 0faa b63d cf47 bbbd
00000200: ba18 ddbb 2ff3 9b3c 5541 eabc 197e 1bbd
00000210: 6047 8e3c 4b4d ddbd 3710 363d d7dc d93e
00000220: 3a2c 95bd a3d0 323e 151d 473e dca0 4bbd
00000230: 2e42 f2bd e027 89bd 4f9d b1bd 3109 b63d
00000240: 1876 f0bc 6065 13be 1a76 ecbb da34 c3bd
00000250: 39c9 a53d d5ac 193e 4f1f 82bd 91ad 2f3d
00000260: 8fb2 bf3d e99f 613d 8ca1 c53c 3858 8dbb
00000270: addd 7fbd d0c6 7fbd 1f54 693e 8e71 2ebd
00000280: ab78 603e 9400 debd 8358 953d ea7b 553e
00000290: d754 56bd 3879 9e3d 1cc5 89bd 675e 233d
000002a0: 06a1 f0bd e6e4 3bbe 4936 0c3b 1178 f9bb
000002b0: f447 55be cc9d 243e 8390 21be 7dff a2bd
000002c0: 17cf 71bd 6571 6b3c 6f53 07bd f5b7 803d
000002d0: da11 f4bd 6a51 cdbd 4312 cd3d 5660 cd3d
000002e0: bd1a 13be 637b a9bc f917 223c 3a43 953d
000002f0: a026 79bd abec ae3d 24bd cd3d 0d07 c1bd
00000300: 83d9 2fbb f22f cc3b cb9e 95bc fe1c b53d
00000310: 1ae4 30bd 7466 043e 5ea0 c93d b6fe 8bbb
00000320: 327d 8c3d 2df4 76bc 63da 833d a8d2 163c
00000330: fdb7 90bd 3183 9d3d e8de c93d 5b19 243e
00000340: 9957 2dbd ebad 87bd 9753 6f3d fd11 9abc
00000350: 65f7 8fbd 41fb 82bb 580a 4b3c 981a e03d
00000360: 7fc1 ae3d c950 99bc 6baa 5bbd 38dc 18be
00000370: 5292 8abc 1aa5 65bd dfb2 fbbd e3dc 9c3d
00000380: 551c 78bb b4c7 5f3d ac1d a1ba c8d1 f5bd
00000390: 402f 983d 6f15 fd3d 75da d03d 8e28 653e
000003a0: 7a3c cb3d 7786 6cbd 6997 2dbc 0615 17bd
000003b0: 2784 863d e0f3 38be d977 f33c c8b1 4fbd
000003c0: b4d5 b93c ef63 85bc 2326 8f3d 05e4 ed3d
000003d0: e80e 123e dc1d a83d a10b 123e 5c63 3ebe
000003e0: bfe6 843d b3b7 bcbb e35f d13d c35b 9abd
000003f0: 0aeb 2fbd 7add 743d 5e91 093e 970d 983d
0.15540422 0.16958922 -0.18611541 0.107996985 0.11745831 -0.031681333 -0.08487921 -0.11471346
-0.055896163 0.22012283 -0.04000198 -0.10099099 -0.12104269 0.16197197 -0.0034658734 0.025903223
0.017573664 0.05328884 -0.16989502 0.2530224 -0.07866053 0.052101128 -0.07998256 -0.1124961
0.05916548 -0.042152554 0.17072922 -0.14866494 0.014547614 0.121161856 -0.025560481 0.080564655
0.09054938 0.079511926 0.09575823 -0.106085874 0.08795917 0.016864697 -0.09428545 -0.08849171
0.13044886 -0.05728719 0.004307732 -0.04602822 -0.0849072 0.09444301 -0.15945274 -0.1416285
0.071243346 -0.071029924 0.022842817 -0.08883339 -0.1820203 -0.12574355 -0.013617899 -0.035574023
-0.07291225 0.06280712 -0.056734737 -0.12681358 -0.11496884 0.042990167 -0.1361394 0.11287428
-0.08968614 -0.15016519 -0.0045061805 -0.055488825 -0.09085305 0.14622557 -0.036285736 -0.08999648
-0.026111774 0.03623262 -0.1810035 0.10185453 -0.0055172304 -0.048806835 -0.005565386 -0.08201746
0.024742018 -0.05351255 -0.10778893 -0.093763866 -0.068059266 -0.086105965 0.026663765 -0.21752353
0.12020711 0.026015293 -0.088832214 0.007189744 0.020591194 -0.08172732 0.100377694 -0.07471874
0.14269678 -0.12474153 -0.05791586 -0.063108936 0.0946717 -0.013388526 0.06070837 -0.23036185
0.09759471 -0.024340414 -0.09392907 0.090870224 -0.11130711 -0.07429406 0.13128762 0.04284346
0.0004373365 -0.205008 -0.11481496 0.16182604 -0.056965612 -0.060324613 0.07249974 0.08370139
-0.0699944 0.03107472 0.045949902 0.07652091 -0.091728434 0.4519445 0.08919155 -0.09144556
-0.0067473324 0.019036857 -0.028595606 -0.037962053 0.017368019 -0.10805758 0.044449057 0.425513
-0.07283826 0.17462401 0.19444688 -0.049713954 -0.11829029 -0.06697059 -0.08672582 0.08888472
-0.029353186 -0.1439414 -0.0072162272 -0.09531565 0.08095021 0.15007336 -0.06353628 0.042890135
0.09360229 0.055084143 0.024124883 -0.004313495 -0.062467266 -0.06244546 0.22785996 -0.042588763
0.21921031 -0.10839954 0.07292273 0.2084805 -0.052327003 0.077379644 -0.06727049 0.03988495
-0.11749463 -0.18349037 0.002139466 -0.00761319 -0.20828229 0.1607582 -0.15777783 -0.07958887
-0.059035387 0.014370297 -0.033038553 0.06285087 -0.119174674 -0.10025294 0.10013249 0.1002814
-0.14365669 -0.020688718 0.009893411 0.07288213 -0.06082785 0.085412346 0.10045841 -0.09425173
-0.0026832528 0.0062313015 -0.018264195 0.088434204 -0.043186285 0.12929708 0.09845041 -0.0042723073
0.068598166 -0.0150728645 0.06438138 0.009205498 -0.07066343 0.076910384 0.09856969 0.16025297
-0.042319868 -0.06624969 0.058429327 -0.018807406 -0.07029609 -0.003997237 0.012392603 0.10942572
0.08533 -0.01871528 -0.05362932 -0.14927757 -0.016915474 -0.056065656 -0.12289976 0.07659318
-0.0037858684 0.05463381 -0.0012292168 -0.12002903 0.07430887 0.12357604 0.10197917 0.22378752
0.09923644 -0.057745423 -0.010595181 -0.036885284 0.06568175 -0.18061781 0.029720234 -0.050706655
0.02268491 -0.016283004 0.06989696 0.11615757 0.14263499 0.0820882 0.14262249 -0.1859259
0.06489324 -0.0057592033 0.10223367 -0.075370334 -0.04294876 0.05978153 0.1343436 0.07424467

fc3.bias f4 [4]
00000000: 9345 d4be 1678 3b3f 866d 85be 9ae5 60be
-0.4145933 0.7323011 -0.26060122 -0.21962586
